PyTorch/checkpoints/stylization/enc_style_00030000.pt (torch, 678753 bytes, 4 tensors)

conv_model.1.weight f4 [96, 76, 8]
00000000: 253f 2bbc aa88 1b3d 82e8 913a 536c 1d3d
00000010: 5e12 8c3d 74f0 1a3d 2cd1 83bc b2e8 373d
00000020: fd88 4dbc eb5b 04bd 826b 0c3d 1a8c 22bc
00000030: 4215 2a3a 6524 d13b 2026 aabc 0032 7ebb
00000040: 2475 3fbd 9056 e0bd e040 033c d046 833d
00000050: f418 833d f6aa 903b 3372 0dbc 2cfd 013d
00000060: 8c4a 80bd 2b6a cd3c 62ca c73c 55df 18bd
00000070: 6195 233d e448 85bd 4a6e edbb 39f6 d5bc
00000080: 84de 25bd e449 17b9 6aed 5bbc 4cd5 8a3d
00000090: c3b9 f3bb 7e08 5fbd e830 943c fdd4 873c
000000a0: ba4e e3bb 9096 91bd baca ae3c 9587 a23b
000000b0: 1308 9c3c ea04 d1bc 01fa 05bd e318 943d
000000c0: 640f 9abb a980 2f3c 86d1 8fbd 4f23 d73c
000000d0: 37ed 4f3d e1c8 01bd d3ae 3c3a cba4 c63c
000000e0: d7d2 49bd 9826 893d 871a a1bc 1105 303d
000000f0: cd4d 13bc dd91 cdbb eb4a 843d 7d16 f33c
00000100: eaff e23d e689 4fbb de92 b0bd e01c cb3d
00000110: 3c82 8e3b 1610 683c 24f2 57bd b192 afbd
00000120: ce04 913d 141e 243d 9863 c139 ca5e 3f3d
00000130: 0f5e 01bd d704 a53b d7b3 f6bd ec21 7c3c
00000140: 887b d73d 3aa0 a5bc b831 a2bd 7785 fdbc
00000150: a5af e83c 1141 e03c d5f3 c6bc 2b7b b63d
00000160: 8c52 f5bd 046f bc3c 88bd 22be 0409 e43d
00000170: 5009 09bd b863 47bd ab7f 603d 8067 a23c
00000180: 1989 683d 2231 0ebe 63c6 46bd d7e2 03bc
00000190: 589d a1bd e918 20bc d40a 31bd 4e4c 5a3d
000001a0: 84b6 9abd 6597 e2bd d072 423d cd06 3b3d
000001b0: 9ae7 413c 5770 fabc b410 8d3b 8771 0ebd
000001c0: 4266 a93d 93c1 b3bc d7ba c43d 95ac 183b
000001d0: aa66 ca3c b4e6 23bd 61d4 96bc 4552 20bc
000001e0: a29e 90bd 4256 ab3c 9e7a a2bd c76d e93d
000001f0: 5fdb 973d f16c 4e3c ef24 babb edf4 9a3d
00000200: a9b8 ddbd 5f8d 173b 1757 3e3c 4181 343e
00000210: 30b6 ed3d 5e19 7bbd 5fc3 e0bd 92ff c63d
00000220: 5f3e ecbd 17cf c03b f81f af3c 7e81 b9bd
00000230: 13dc 7b3d 94ea 0dbd aa8e 2a3b cce1 1bbd
00000240: a765 9bbc d5ac b33d 3b0c 3e3d 30e8 6b3d
00000250: 289c 95bc e9a9 27bc 6007 2e3c 23e2 b4bd
00000260: 0700 583c b2be 3ebc 79f6 f3bd e445 7c3c
00000270: 581a c0bd 611b c8bc 80c0 29bd 4b45 91bc
00000280: 82a0 b63d 47a5 2d3d c464 493c fbad 28bd
00000290: 4700 853d 62e7 753d b3c3 cfbb 2061 17bb
000002a0: 6fff 35bc 63a4 9bbc 7750 31bd 065a b23d
000002b0: 1dc7 163d 9829 693d eec1 a5bc 578e 533d
000002c0: 5313 7e3b 0895 81bc 2401 093d 5b3d f2bc
000002d0: e820 e63c 142b ed3c 3c23 b13c 3f3b aabc
000002e0: 9280 a03b 9a0d 233d 7370 263c 4ec8 9b3d
000002f0: fcf8 c63b 8f0e 98bd 6036 8c3d 3915 13bb
00000300: 3ef5 11bc 641e 1abc 82bf 31bd e046 de3c
00000310: 2837 73bd e723 04bd 7a60 f3bc fdc7 40bd
00000320: 5d25 073d 0609 19bd 22e5 0ebd 4c14 babd
00000330: e349 93bc 7231 913d 3428 7bbd ad78 19bd
00000340: 06cf 38bd 751b 763c 8f24 0cbd 97d5 97bb
00000350: 37bb 4bbd 5307 fe3c ab3d 82bc f24f 6dbb
00000360: b5d4 763c 2cbe 8f3d 117d 42bd af82 71bc
00000370: 2b82 123d 42e3 d9bd ff33 bc3d f7dd 9a3c
00000380: c63f 183d 5cf8 8c3c d609 123c f0a4 9e3d
00000390: dc94 a8ba 3e8d 1e3d d8b9 0f3d e660 86bb
000003a0: 318c 28bd 6f3d 4d3b 93d9 223d 0e2c ca3d
000003b0: afd5 cebd b666 a93c 935e 95bc 29a1 82bd
000003c0: 3c5b 503d d80f 503c 9614 c73c 1061 b7bc
000003d0: 6ecb 073d fa03 b4bd 37b2 e83d 49df ec3d
000003e0: 660f 613c 57ba eb3c d637 313d 5454 373c
000003f0: fa51 343d bb96 01bc 7543 79bc 33aa 1cbb
-0.010452067 0.03797213 0.0011131915 0.038433384 0.06839441 0.03782697 -0.016090952 0.04489965
-0.012544868 -0.032314222 0.034282215 -0.009921098 0.0006488153 0.0063825124 -0.020770133 -0.0038787127
-0.046742573 -0.109540105 0.008011073 0.06409991 0.06401244 0.0044149114 -0.008633184 0.031735584
-0.06264219 0.025075039 0.024388496 -0.03732236 0.03993738 -0.065080434 -0.0072458135 -0.026118385
-0.04049541 -0.00014428009 -0.013423303 0.067789644 -0.007437916 -0.05445146 0.018089727 0.016581053
-0.006936875 -0.07108796 0.021336902 0.0049600103 0.019046819 -0.025515039 -0.032709125 0.07231309
-0.0047015417 0.010711827 -0.07022385 0.026261954 0.050763335 -0.031685714 0.00071976817 0.024248501
-0.04927334 0.06696814 -0.01966597 0.04297358 -0.008990717 -0.006273492 0.06459602 0.02967381
0.11083968 -0.0031667887 -0.08621763 0.09917617 0.0043490212 0.014163991 -0.052721158 -0.08572901
0.070809945 0.040067747 0.00036886032 0.046721257 -0.031583842 0.0050359773 -0.120460205 0.015388947
0.105216086 -0.020218004 -0.07919639 -0.03094743 0.028404066 0.027374776 -0.02428619 0.08910211
-0.11978635 0.023002155 -0.15892613 0.11134532 -0.033456147 -0.048679084 0.054809254 0.019824743
0.05677137 -0.1388593 -0.04852904 -0.008049688 -0.07891339 -0.009771564 -0.043223217 0.053295426
-0.07554343 -0.110640325 0.047472775 0.045660783 0.011835003 -0.030571146 0.0043049697 -0.034776237
0.08271457 -0.02194289 0.09605949 0.0023296226 0.024707157 -0.040014938 -0.018411817 -0.00978524
-0.07061507 0.020915154 -0.079335436 0.113978915 0.074148886 0.012599216 -0.0056806724 0.07566247
-0.10826237 0.0023125035 0.0116174435 0.17627431 0.11607015 -0.06130349 -0.10974764 0.09716715
-0.11535334 0.005884062 0.021377549 -0.09057902 0.061489176 -0.03464754 0.0026024976 -0.038057134
-0.01896937 0.087731995 0.046398383 0.057594478 -0.018262938 -0.010233381 0.0106218755 -0.08832195
0.0131836 -0.011642145 -0.11912245 0.015397523 -0.09380025 -0.024427118 -0.041443348 -0.017733237
0.08917333 0.04239395 0.012292091 -0.041181546 0.064941935 0.060035117 -0.006340468 -0.0023098662
-0.011108263 -0.018999284 -0.043289628 0.08708577 0.036810983 0.056924433 -0.020234074 0.051649418
0.0038768842 -0.015818134 0.033448353 -0.029570272 0.028091863 0.028951205 0.021623246 -0.020780204
0.0048981393 0.039807893 0.010158646 0.076065645 0.0060721617 -0.07424652 0.06846309 -0.002244307
-0.008908568 -0.00940666 -0.043395527 0.027133405 -0.059378773 -0.0322608 -0.02970909 -0.047065724
0.032994617 -0.03736212 -0.034886487 -0.090859026 -0.017979568 0.07089509 -0.061317638 -0.0374686
-0.045119308 0.015021195 -0.034214552 -0.004633616 -0.04973909 0.031009352 -0.015898546 -0.0036210981
0.015065362 0.07018694 -0.047482554 -0.01474063 0.03576867 -0.10639049 0.09189605 0.01890467
0.037170194 0.01720827 0.008913478 0.07746303 -0.0012861746 0.038708918 0.035089344 -0.0041009067
-0.041149322 0.0031317135 0.039758276 0.09871684 -0.10099351 0.02067886 -0.018233573 -0.06378395
0.050868258 0.01269909 0.024301808 -0.02238515 0.03315299 -0.08789821 0.11362117 0.11566026
0.013736581 0.028775377 0.04326614 0.011189539 0.04402349 -0.007909472 -0.015213837 -0.0023905158

conv_model.1.bias f4 [96]
00000000: a8d0 d1bd 05c1 0bbd e03a bfbd 5080 49bd
00000010: c155 3bbd 629d 4abd 7d32 81bd 0f4d 93bd
00000020: 4c44 05bd d335 a6bd e69b dbbd 6fa3 d0bd
00000030: c287 a3bd 0966 aebd 9fef 96bd 8dba b3bd
00000040: 5d8e 8bbd eac8 a5bd 9f8c c1bd c040 7ebd
00000050: ad7d b5bd 9fa9 88bd 1ca5 8bbd 9053 38bb
00000060: 0d33 23bd 1a96 8fbd 9ccf 9abd 9739 4dbd
00000070: a7eb 5cbd 781f 6dbd 7fa5 84bd 144d 01bd
00000080: d1e2 16bd 3f0f c2bd a62c 2cbd ce0b 0dbd
00000090: fdb3 27bd e8f4 bcbd 06bd e7bc 8994 4ebd
000000a0: 352d b9bd b0aa d9bd d543 9bbd d06a 7bbd
000000b0: 718f aebd 938a a9bd 2cb9 babd 89ae e0bd
000000c0: 6dbd bbbd 5940 99bd ead5 81bd d382 92bd
000000d0: 2685 82bd 4821 bfbd 8634 83bd 29b7 a0bd
000000e0: c007 8dbd 876f 31bd 616f 68bd 26ab a7bb
000000f0: 0996 60bd 2d59 90bd 9460 61bd 2d05 c6bd
00000100: fa71 a6bd 733c 80bd dd0f 9dbd 4398 aabd
00000110: f1b7 aebb ddae 97bd dbea b6bd 3efc 99bd
00000120: f3ce 64bc 7485 c6bd 12fe 8bbd 0ac3 93bd
00000130: 99ae 65bd 75c8 8bbd fa7d bebd 55a4 b4bd
00000140: 83e8 15bd 823c bebd ab73 a9bd 236b cd3b
00000150: 4834 66bd 5c00 36bd f6db c7bd b263 92bd
00000160: 8020 dfbc a19d 30bd aec5 76bd 6304 6bbd
00000170: 6f06 28bd 1e95 c6bd 55ec a5bd e779 76bd
-0.10244876 -0.034119625 -0.093374014 -0.049194634 -0.04573608 -0.0494665 -0.06308458 -0.07192432
-0.032535836 -0.08115735 -0.10723095 -0.101874225 -0.07984878 -0.085155554 -0.07369923 -0.08775816
-0.06814263 -0.08094962 -0.094506495 -0.06207347 -0.088618614 -0.06672978 -0.068186015 -0.002812598
-0.039843608 -0.070110515 -0.075591296 -0.05010375 -0.053935673 -0.05789134 -0.064768784 -0.031567648
-0.036837403 -0.09475564 -0.042034768 -0.034435086 -0.040943135 -0.092264 -0.028288376 -0.050434623
-0.09041826 -0.10628259 -0.07581297 -0.06138116 -0.08523453 -0.08278384 -0.0911735 -0.1097079
-0.091669895 -0.074829765 -0.06339629 -0.07153859 -0.06373052 -0.0933252 -0.064065024 -0.07847435
-0.06886244 -0.04331925 -0.056746844 -0.005116838 -0.054830585 -0.07048259 -0.055023745 -0.09668956
-0.08127208 -0.0626153 -0.07669041 -0.08329823 -0.005331986 -0.074063994 -0.08931514 -0.075188145
-0.013965356 -0.09693423 -0.068355694 -0.07214935 -0.056074712 -0.068253435 -0.09301372 -0.08820406
-0.036598694 -0.09288885 -0.08274015 0.006268875 -0.056202203 -0.044433936 -0.09758751 -0.071479216
-0.027237177 -0.043119077 -0.060247116 -0.05737723 -0.04102176 -0.096964106 -0.081017174 -0.06017485

conv_model.4.weight f4 [144, 96, 8]
00000000: 9833 843d c2c2 2eba 3f43 babd 5367 4bbc
00000010: df06 29bd a985 b2bc ec83 97bc 5c93 adbd
00000020: 9278 0a3d a221 abbc a29f e13c 4f0d 79bd
00000030: 0100 83bd 0909 753d 2e94 64bd ca25 303b
00000040: 8cd4 823d c802 443d 764f 663c 6611 3ebd
00000050: efa0 8b3b 2a98 60bd 1b3f 5e3d be06 b7bc
00000060: 61b9 91bd 2bc9 3e3c 88da 623d 41c7 81bd
00000070: 24fe bfbd e4dc 8cb9 222f 5cbd 5ceb 2ebd
00000080: 0c9c 9ebd 75d8 31bd 9c37 673d 609c 97bc
00000090: 65ea 6c3d 9a25 03bd ca47 903c 72d5 813c
000000a0: 018c 76bd 1484 ab3c 78b2 253d f3ac 87bd
000000b0: da85 d83c ff0b abbd 1223 3fbd b740 e63c
000000c0: d73c c43a 8414 033b 2dfa e8bd 8382 c2bc
000000d0: 5d23 093c 7c84 283c 4113 aebd cb3f 993c
000000e0: 3a1f 953c e2a7 abbd 0abd 0abc 22a8 d13d
000000f0: b1ec e63c a940 b03c 4724 fbbd 1394 18bd
00000100: b69c 2d3d 4a2e d239 19ce 81bd 9e1c 19bd
00000110: 7ff0 3ebc 2b3c 423d c26f 20bd d88b cb3b
00000120: 2265 ddbc 5506 d2bc 7e2a b3bc 733a 143d
00000130: 59a1 9dbc 2b1f e53c 03b8 0bbd a425 db3c
00000140: 08cf 233d e516 73bd 31f5 a23b 298a a7bc
00000150: 4668 aebc c796 663d 840b ecbd 3422 8a3d
00000160: b0f7 40bd 801c 8cbc 6843 6cbd a592 61bd
00000170: e129 913d 9f63 f6bd 6b34 353d a084 01bd
00000180: 58c5 abbc 46ad e53c 328a 8a3d accf c63d
00000190: ca17 a7bd 1925 00be c20c 0ebc 6632 15bc
000001a0: f842 13bd 0c9d 0e3d f70c 163d ae31 d4bc
000001b0: 3765 213d cc78 efbb f8f4 3cbd 8b3c f0ba
000001c0: 2024 6ebd a5dd d239 a733 82bd a389 623d
000001d0: 7a14 7cbd be7c 0ebd 87d9 5b3c 343e 433c
000001e0: 61fe 5b3c 323b ab3d 5742 c9bc 69dd 81bd
000001f0: b9f5 cb3d 8d0e f73a 5a42 92bd 6e8c 75bd
00000200: c8bc 80bd 7e67 c73d 5093 0c3d 657d ccbd
00000210: 3f1f 3c3d 1c33 97bd 6112 0ebc 22c1 cabc
00000220: 96df bbbd 2f85 c13b bb3e 163d b876 003d
00000230: f737 9d3b ad58 4d3b 46c8 803b 65da 3f3c
00000240: 436f c63c a821 233d cc72 2b3c ffa5 3d3d
00000250: d575 17bd 4455 8cbc 4054 6abd a80d 0cba
00000260: 6f46 253c 1ee0 57bd f74b 2abd 19fd 2dbd
00000270: 49f2 ddbc 9ec9 c43c 4649 67bd 5a58 3abc
00000280: 73f4 973b 9d78 173d 360a d7bc c6f1 74bd
00000290: 35dd 6ebc 373b afbd fcf3 35bc 4336 ffbc
000002a0: 38c7 67bd 8d2e 8cbd 53b7 e5bc 8de0 a5bc
000002b0: 2044 81bd 3b50 46bc 04e1 d03c e49a b4bc
000002c0: 2193 b2bc 5309 8cbd 4c28 52bd d78d aabd
000002d0: 47e2 b63c 7ea7 d6bc ed4f f9bb 1dd6 0ebd
000002e0: 3b8f 243c 3b09 1dbc 24ff d1bc 2058 9bbd
000002f0: 684e 053d 2111 82bd 01b8 6abd caa8 72bd
00000300: 6c19 72bc d168 7bbc c563 28bd 2a97 8abd
00000310: 1767 913c 64ef 57bd 4305 5fbc 85e6 13bd
00000320: db72 a33c 4487 c83c 564d cabc fb91 103d
00000330: fcb6 31bd e043 01bd 2a0a 573d a9b1 26bc
00000340: 4437 ed3c 6a9d 623c 28d4 383c 41b4 a2bc
00000350: 96ff 24bd cb4c 21bd 2f40 163c a8e0 f6bc
00000360: 8068 21bd fcb8 74bc edc0 4e3c 1952 0e3d
00000370: 4ef8 4f3d 851a 1c3d 779e 993c 0bc5 51ba
00000380: aa7a 69bd 7e18 63bc e5c4 afbd 35fd 113c
00000390: 4fa2 26bd e544 0cbc 710f 81bd 4c0a 30bc
000003a0: fe2e 59bd 1836 c33d 2078 cebc 325c 21bd
000003b0: f3ec 61bd 662e f4bc d603 233c 9aa2 a9bd
000003c0: ea14 443c 207f 493d 4a76 c6bc bfbb d83d
000003d0: e86c 23bc 2d1d adbc d890 3dbd 1aec a6bc
000003e0: c02e 49bd de51 6fbd 432a 97bd 3f98 553d
000003f0: e9ec 3a3a 8904 473c 2eb1 403b c823 45bd
0.06455153 -0.00066665944 -0.090948574 -0.012414771 -0.04126632 -0.02179225 -0.018495522 -0.08475372
0.03380639 -0.02089006 0.02754194 -0.060803708 -0.06396485 0.05982307 -0.055805378 0.0026877993
0.06388196 0.047854215 0.014057031 -0.04640331 0.004261128 -0.054832615 0.0542594 -0.022342082
-0.07115436 0.011644642 0.05538419 -0.06336833 -0.09374645 -0.00026867457 -0.053755887 -0.042704925
-0.07744607 -0.04341932 0.056449518 -0.018507183 0.057840724 -0.03201828 0.017612357 0.015848849
-0.060192112 0.020937003 0.040453404 -0.06624784 0.026431013 -0.083518974 -0.046664305 0.02810703
0.0014971745 0.0020001242 -0.11375842 -0.023743873 0.008370248 0.010285493 -0.08499766 0.018707177
0.018203367 -0.083816305 -0.008467922 0.10237147 0.028189035 0.021515207 -0.12262779 -0.03725059
0.04238578 0.0004008881 -0.06338138 -0.037380807 -0.011654018 0.047420662 -0.03916908 0.006211739
-0.027025763 -0.025637785 -0.021870848 0.036188554 -0.019241976 0.027968964 -0.034111034 0.026751347
0.039992362 -0.059348006 0.0049730767 -0.020451622 -0.021289956 0.056296136 -0.11525634 0.06744805
-0.047111213 -0.017103434 -0.05768147 -0.05507149 0.07088066 -0.1203072 0.044239443 -0.03162062
-0.020968124 0.028036725 0.0676464 0.09707579 -0.08158834 -0.12514152 -0.008670034 -0.009106254
-0.03595254 0.03481774 0.036633458 -0.025902595 0.039403167 -0.0073081013 -0.046132058 -0.001832859
-0.05813992 0.0004021946 -0.06357508 0.05530704 -0.061542965 -0.034786932 0.013418562 0.011916686
0.013427348 0.083609 -0.024567766 -0.06341059 0.09958977 0.0018848941 -0.07141562 -0.059948377
-0.06286007 0.097365364 0.034320176 -0.099848546 0.045928236 -0.07382795 -0.008671374 -0.024750296
-0.09173505 0.0059057693 0.03668092 0.03136322 0.0047979313 0.0031333372 0.0039301245 0.011709784
0.024222976 0.03982702 0.010464381 0.046300884 -0.036977608 -0.017130502 -0.057209253 -0.0005342611
0.010087593 -0.05270397 -0.041576352 -0.0424777 -0.02709307 0.02402192 -0.056466363 -0.011373604
0.004637295 0.03698026 -0.026249986 -0.059800886 -0.014579107 -0.08556216 -0.011105534 -0.031153804
-0.056586474 -0.06844816 -0.028041517 -0.020248676 -0.06311822 -0.012104089 0.02549792 -0.022046514
-0.021798672 -0.06837716 -0.05130796 -0.08327835 0.022324694 -0.026202913 -0.007608405 -0.034872163
0.010043914 -0.00958472 -0.025634356 -0.07585168 0.032545477 -0.06350923 -0.057304386 -0.059243
-0.014776569 -0.015344814 -0.041110773 -0.067671135 0.017749352 -0.052718535 -0.013612094 -0.036108512
0.019952228 0.024478562 -0.02469508 0.035295468 -0.043387398 -0.03155887 0.052499928 -0.010174193
0.028957017 0.013831476 0.011281051 -0.019861342 -0.04028281 -0.039379876 0.009170576 -0.030136421
-0.0394063 -0.014936682 0.012619239 0.034746263 0.05077391 0.03811123 0.01875232 -0.0008002079
-0.057001747 -0.01386082 -0.085824765 0.008910467 -0.040682133 -0.008561348 -0.06301773 -0.0107446425
-0.05302333 0.09531802 -0.025203764 -0.039394565 -0.055157613 -0.02980728 0.009949645 -0.08282967
0.011967877 0.0491935 -0.024226326 0.10582685 -0.009974696 -0.021132076 -0.046280712 -0.020376254
-0.04911685 -0.058427684 -0.07381108 0.052147146 0.0007130639 0.012147077 0.0029402482 -0.048129827

conv_model.4.bias f4 [144]
00000000: bd32 a2bc 69a8 c83b 559d 07bb 802c d0bc
00000010: d5ba 66bc 9efa 26bc cab0 50b7 616e 1abd
00000020: 1a72 87bc 6264 313b f077 3ebc 41f0 d4bc
00000030: 542c 94bc ae1b 58bc 8f2e 17bd 8a3a da3c
00000040: 86c4 a0bb c652 44bc 3892 f7bc 4578 04bd
00000050: 67a1 99bc 0a08 03bd d2d3 5b3c dd3a 11bc
00000060: 890c 1dbd bfb0 d339 ce88 06bd f625 eb3c
00000070: fb7e d0bc 66e5 a3bc d218 42bc 8eb2 ff3c
00000080: a690 9b3c 3e20 debc 7cf1 12bd ff1f 10bd
00000090: beac 24bc bc2b dabc dced fdbc aec1 c9bc
000000a0: d26f dfbb 3a13 18bd 5121 c3bc bbe4 f3bc
000000b0: 2cf9 453c c37d 33bd 636e c23c cfa8 01bd
000000c0: a697 683c c5f8 aabc 9e5f 98bc 60c2 eebc
000000d0: ce15 dabc 09b1 c5bb 1895 d2bb 0bf3 efbc
000000e0: b104 65bc 4f78 84bc f520 eabc 0874 e5bc
000000f0: f94b ddbc 4190 423c d3d2 39bc 6b12 98bc
00000100: c748 1bbc d3a3 6abc 6814 02bd 517a 2dbd
00000110: db2b b5bc 0f77 91bc 0535 b7bc 9d29 37bb
00000120: bab4 05bd 3374 02bd b0b4 0c3b a677 18bd
00000130: 9e53 8abc b556 92bc 0a51 573c b39b aabc
00000140: 2378 89bc 2413 d6bc b83c 9cbc 3a53 22bc
00000150: ec04 f9bc f6b7 49bc b4fd 16bc aa6e aebc
00000160: 5102 0abd 0519 bebc 97ed aabc 5ff0 f4bc
00000170: 849b 0bbd a984 cbbc 0bf4 ccbb 2419 14bd
00000180: 0141 32bd 996c e1bc 2ab7 abbc 684c e53b
00000190: 507e 9bbb de11 bbbc db64 eabc 7204 cbbc
000001a0: 1a7b 0ebd c442 bebc a33a 083c 480d 10bd
000001b0: 4882 01bd 0f4e ffbc 798e 04bd 788d 80bc
000001c0: 3fdc 80bc 032b 3a3b ae74 d03b ffde 43bb
000001d0: c5fd 02bd ccb9 04bd c346 9bbc 9920 083c
000001e0: c383 45bc c019 b43c 707e 78bc 0e63 23bd
000001f0: 3f46 b13b 85f5 03bd ba4e 613b d980 15bd
00000200: 9b0b 61bc 8c20 993c 9f14 753c 7731 42bd
00000210: cc17 bcbb 7815 3cbc 58d7 aebc 67a4 efbc
00000220: 2dd3 66bc 50de 8cbc e5c9 8ebc 97f0 36bc
00000230: 73f1 9cbc b623 adbc 7ab7 27bd 4a3a d1bc
-0.019799585 0.0061235917 -0.0020693142 -0.025411844 -0.01408263 -0.010191588 -1.2438928e-05 -0.03770292
-0.0165339 0.002706789 -0.011625275 -0.025993468 -0.018087544 -0.013190193 -0.036909636 0.026639242
-0.00490624 -0.011982625 -0.03022109 -0.03234126 -0.01875372 -0.03199009 0.013417201 -0.008864132
-0.038342033 0.00040376742 -0.03284531 0.028704625 -0.025451174 -0.020006847 -0.011846738 0.031213071
0.018989872 -0.027114984 -0.03587483 -0.035186764 -0.010050951 -0.026632182 -0.03099721 -0.024628486
-0.00681875 -0.03712771 -0.023819597 -0.029772153 0.012083333 -0.043821108 0.023734277 -0.03165513
0.014196312 -0.020870576 -0.018600281 -0.02914542 -0.026621725 -0.006033067 -0.0064264648 -0.029290697
-0.013978169 -0.016170649 -0.028580168 -0.02800943 -0.027013766 0.011875213 -0.011341768 -0.01856347
-0.009477801 -0.014321285 -0.031757742 -0.04235298 -0.022115638 -0.017756967 -0.022364149 -0.0027948387
-0.032643057 -0.031849097 0.0021470003 -0.03722348 -0.016885575 -0.01786361 0.01314188 -0.020826196
-0.016780918 -0.026132174 -0.019071922 -0.009907538 -0.030397855 -0.012311926 -0.009215761 -0.021293003
-0.033693615 -0.02320529 -0.020865245 -0.029899774 -0.034083858 -0.02484353 -0.006254678 -0.03615679
-0.043519024 -0.027517604 -0.020961363 0.0069976337 -0.004745282 -0.022835668 -0.028612545 -0.024782393
-0.034785368 -0.023225196 0.008314761 -0.035168916 -0.031618387 -0.03116515 -0.032362435 -0.015692458
-0.015730022 0.0028406985 0.0063615656 -0.0029887555 -0.031980295 -0.032403752 -0.01895464 0.008308553
-0.01205534 0.021984935 -0.015166864 -0.039889388 0.0054099853 -0.032216568 0.00343792 -0.03649983
-0.013735677 0.018692277 0.01495853 -0.047410455 -0.0057401415 -0.011479728 -0.021342918 -0.029253198
-0.014088434 -0.01719585 -0.017430255 -0.0111657595 -0.0191581 -0.021135192 -0.04094646 -0.02554049
