PyTorch/checkpoints/stylization/mlp_00030000.pt (torch, 837695 bytes, 6 tensors)

model.0.weight f4 [192, 144]
000000 ac 48 cc 3c f6 80 15 be d2 3d b1 bd f6 1b af bc
       0.024936996 -0.14599976 -0.086543694 -0.021375638
000010 ec 72 9c 3d ac 0d 4c 3c 70 d5 be 3c e4 1b 1b 3e
       0.07639107 0.0124544315 0.023295134 0.15147358
000020 ef af d6 3d 3c 3e 82 bb 82 88 84 3d 08 7f 27 3e
       0.104827754 -0.003974704 0.06471349 0.16357052
000030 0d b3 a2 bd 22 d0 08 3e 8d 07 fe bc b6 15 af bd
       -0.079443075 0.13360646 -0.03100946 -0.08549063
000040 89 3f 92 bd 2a 62 84 bd f9 7f e8 3d a0 7c 34 3e
       -0.071410246 -0.06464036 0.11352534 0.17625666
000050 b8 56 2e bd ce 06 04 be 75 5b 35 bd 84 b2 f8 3c
       -0.04256317 -0.12893221 -0.044276673 0.03035856
000060 0f 61 34 3e 2c 09 84 3c bf 1f 52 3e e8 dc 39 be
       0.1761515 0.016117655 0.20519923 -0.18150675
000070 cd 0a 09 be d6 f4 a3 bd db 4a 09 3e d0 35 d7 bd
       -0.13383026 -0.08005683 0.13407461 -0.10508311
000080 bc 81 78 be c7 ab 67 be 2f 25 08 be 28 f3 1e 3d
       -0.2426824 -0.22624122 -0.13295434 0.03880611
000090 a9 32 25 be 22 3c 24 3d 24 b3 cf 3d a9 0a 62 3e
       -0.16132607 0.04009641 0.1014159 0.22074379
0000a0 9d 9f 77 3c 0d 7b 0b be 6b af 00 3e 22 8d ef 3c
       0.015113738 -0.13621159 0.12566917 0.029242102
0000b0 cb bc 93 bd f5 c6 ff 3d 22 38 06 be 13 1c a1 bd
       -0.07213744 0.1248912 -0.1310735 -0.07866683
0000c0 9d bd fa 3c 45 07 1a 3d 69 5a 21 be b4 03 10 3c
       0.030607993 0.03760459 -0.15757145 0.008789945
0000d0 f1 a3 ce bd c5 fb f6 3d 79 6f 2e be c2 24 7f bd
       -0.10089863 0.1205974 -0.17034711 -0.062290914
0000e0 99 30 10 be ff 00 fd bc 73 87 76 3d a0 c4 bb 3d
       -0.14081039 -0.030884264 0.06018777 0.091683626
0000f0 97 f4 ce bd ee 0a 46 3d 2c 66 c3 bd 35 18 70 bd
       -0.101052456 0.048350267 -0.09540972 -0.058616836
000100 07 23 a9 3d d9 f7 af 3d 6d 99 f5 bc 8c 73 3f bd
       0.08258634 0.08592195 -0.029980386 -0.046741053
000110 77 50 c7 3d e9 9b a7 3d aa 20 0a be c8 65 5a bd
       0.09732144 0.081840344 -0.13489023 -0.053319722
000120 e6 3d 80 bc 14 5c 7e bd 76 92 c2 3d 21 66 d4 3d
       -0.015654515 -0.06209953 0.095005915 0.10371042
000130 eb 87 8e bd 92 10 47 bd c6 77 62 3e 8f 82 97 bd
       -0.06959518 -0.048599787 0.22116002 -0.07397949
000140 c3 4b 23 3d d2 58 ea 3d 7a 1f 4c 3d 0a 93 17 3e
       0.039867174 0.114427224 0.049834706 0.14802185
000150 ee e3 d1 3d c0 17 dc bd eb e0 74 3c 85 95 99 bc
       0.10248552 -0.107467175 0.014946203 -0.018748054
000160 4c 20 45 ba c8 a6 a1 3d 80 d4 13 3e 37 48 07 be
       -0.0007519766 0.07893139 0.14436531 -0.13211142
000170 91 6a 4f be 48 2f 13 be 52 8c 00 bd 2a bf a2 bc
       -0.20255496 -0.14373505 -0.03138382 -0.019866545
000180 4c b2 41 be 1c c9 16 be 00 30 ca 3d c0 1f 80 bd
       -0.18915671 -0.14725155 0.098724365 -0.06256056
000190 44 27 c2 bc 1e d8 0f 3d cc 33 19 be 27 2f fa 3d
       -0.023700364 0.035118215 -0.14961165 0.12216025
0001a0 e0 90 67 3e 7e 15 58 bd 99 fb dc 3d 7b 7c 9d 3d
       0.22613859 -0.05275487 0.10790176 0.076897584
0001b0 e5 72 9a bc 0d 40 c0 ba bc e3 85 3d d9 b0 92 be
       -0.018853614 -0.0014667526 0.065375775 -0.2865055
0001c0 6f b2 20 3d cf 65 61 3d 0c 2e 82 3d db b3 b2 bd
       0.039232668 0.055028733 0.06356439 -0.08725711
0001d0 e1 61 35 be ef 6c 53 3d 9b a1 fb 3c 5c ca 21 3d
       -0.17713119 0.05161756 0.030716708 0.039499626
0001e0 f7 2d 46 be 0c 18 90 bd 98 68 3f 3d 11 e0 6c 3e
       -0.19353472 -0.070358366 0.046730608 0.2313235
0001f0 d1 d5 cb bc cb de 7d 3e f6 1b ff 3d 8a 70 0b bd
       -0.024882229 0.2479202 0.12456505 -0.034042872
000200 80 f1 13 3b cc 25 bb 3c d2 7f 88 3d d4 5e 8a bd
       0.0022574365 0.022845171 0.06665005 -0.06756368
000210 2c fe 87 bc 5b 1a 48 3b 90 26 47 be 14 7d 9f bd
       -0.01660069 0.0030533287 -0.19448304 -0.07787529
000220 b5 7b b6 bd 56 42 40 3e fe ed 94 3d 4d 5a 73 3d
       -0.08910314 0.18775305 0.07271956 0.05941229
000230 3c 19 e7 3d 84 f7 b8 bd 1c 71 d8 3d 7d 3c 42 3e
       0.1128411 -0.09031585 0.10568449 0.18968387
000240 15 38 07 bd 84 63 e9 bd 4a 24 81 bd 3c 80 8f bd
       -0.03301247 -0.11395934 -0.0630575 -0.07006881
000250 a1 f7 be bc 49 59 9f bd bb dc 5d be e8 ac 73 3c
       -0.023311438 -0.07780702 -0.21666233 0.014872767
000260 ce ff 9c bc f8 a4 46 bd fb 82 4e 3c c5 e0 1b 3e
       -0.019164946 -0.04849717 0.01260447 0.15222462
000270 1c f1 ab 3d 71 26 aa bd 36 18 5d bd 1b 24 21 3e
       0.08395597 -0.08308113 -0.053978167 0.1573643
000280 4d 0b 32 3d 24 d1 0e 3e ae 04 2c 3d 13 bd 33 be
       0.04346781 0.13946968 0.04199665 -0.17552595
000290 32 74 f4 3d 2a 0a 2b bd 58 d5 9a bd e7 18 89 bd
       0.11936225 -0.04175774 -0.07560223 -0.06694203
0002a0 24 52 14 3e eb eb 0b 3e 80 2d 8f bd ef ce 24 bd
       0.14484459 0.13664214 -0.069911 -0.04023641
0002b0 a6 16 3e 3e 46 74 1f 3d e2 6f 9f 3d 4d a8 fc bd
       0.18563327 0.038929246 0.07785012 -0.12336788
0002c0 26 1b 42 3a 2e 4c d0 3a a4 20 a3 bd 24 cb c6 bd
       0.0007404558 0.0015891844 -0.0796521 -0.09706715
0002d0 7e d0 6f 3c cb c0 09 be 63 82 e0 3d af 76 4f 3d
       0.014637111 -0.13452451 0.10962369 0.050650295
0002e0 c9 45 e3 3d 30 00 fa bd 50 a8 28 3d d3 d6 98 3c
       0.11097295 -0.12207067 0.04117614 0.018657124
0002f0 29 1c 5b bd bc 2d d8 3d 9c 5c 33 be ec 1c da 3d
       -0.053493652 0.10555598 -0.17515796 0.10650048
000300 50 cd 94 bd b7 4c e7 3d af dc 41 3d ff a3 c4 3d
       -0.07265723 0.11293929 0.0473296 0.09601592
000310 cf 38 3b be 06 28 77 3c c8 ed b6 bd 72 e2 8f 3d
       -0.1828339 0.015085226 -0.08932072 0.07025613
000320 47 fb 41 be 02 c7 86 3d 8d 74 9b 3d be d5 0a be
       -0.18943511 0.065809265 0.0759059 -0.13558099
000330 5b 5b 23 be ae d2 0b be 02 0b e7 3b 4a 07 88 bd
       -0.15952818 -0.13654587 0.007050873 -0.06642015
000340 c1 de 89 3d cf 67 5a ba 25 b9 f8 bd 7d c5 ad 3a
       0.0673194 -0.0008331509 -0.121446885 0.0013257709
000350 94 41 c1 bd ba 83 b0 3c 6b cb 6d 3d 75 c7 fd bd
       -0.09436336 0.021547187 0.058055323 -0.12391559
000360 19 58 b0 bd a7 27 a5 3c 2f 1f ab bd a7 56 39 be
       -0.08610553 0.02016051 -0.08355557 -0.18099461
000370 22 96 a4 3c d1 76 43 bc 7a 57 e1 3d 58 a0 4e 3e
       0.02009112 -0.0119301835 0.11003013 0.20178354
000380 62 d0 75 3d 9d f9 22 3c 01 53 13 3e 69 80 95 3d
       0.060013182 0.009947208 0.14387132 0.07299883
000390 43 5c de bd 5f 2a 3c 3d ca 99 22 bc 3f 20 04 bd
       -0.10857441 0.045938846 -0.0099243615 -0.032257315
0003a0 4f 33 c2 3d 77 c0 56 3a b3 0f 07 be f2 ec 37 3d
       0.094824426 0.00081921316 -0.13189583 0.044903703
0003b0 5f 4a 07 be 0b af 52 bd 92 82 6d 3d b3 46 21 be
       -0.13211964 -0.051436465 0.05798585 -0.15749626
0003c0 dc 46 57 bc 8f 3a 1e bd e4 c7 c7 3d 3c 30 10 bd
       -0.013139453 -0.038630065 0.09754923 -0.03520225
0003d0 42 de 7b be 48 aa 4c 3c f6 a3 3d 3e e8 52 59 3c
       -0.24596503 0.01249177 0.18519577 0.013264395
0003e0 b0 39 8b 3c 8b 40 2d 3e c0 06 75 bd 12 66 53 3d
       0.016995281 0.16919152 -0.05982089 0.051611014
0003f0 02 f7 45 bd 11 57 b7 bd fe 82 1e 3e 32 6b 3f 3e
       -0.048331268 -0.089521535 0.15479657 0.18693236

model.0.bias f4 [192]
000000 ef 1c b1 bc 4f b4 6c bc 19 7b 5a bc 13 58 d0 bb
       -0.021620242 -0.014447286 -0.013335013 -0.0063581555
000010 1b a2 21 bd 3b 57 c1 bc b0 d4 51 bc 47 b6 d0 bc
       -0.039461236 -0.023601165 -0.012807056 -0.025477542
000020 9a 44 7d bc 38 63 8f bc 8e 04 b9 bc 78 d0 d2 bc
       -0.01545825 -0.017503366 -0.02258518 -0.025734171
000030 da 41 5a bc 5d bb 15 3c 10 1a 6c bc f0 e7 08 3c
       -0.013321364 0.009138909 -0.014410511 0.008356079
000040 93 97 b4 bc 5b 3a 1d bc a9 d0 1d bd ae c3 ef 3b
       -0.022044932 -0.009596433 -0.038529072 0.007317028
000050 a4 8e d0 3b e5 b9 97 bc 27 be 88 bc 2b bd c6 bc
       0.0063646603 -0.018521259 -0.016692234 -0.024260124
000060 fa 6b 22 bd db af f0 bc ff e1 82 bd d4 ca 49 bc
       -0.039653756 -0.02938073 -0.063907616 -0.012316424
000070 aa dd ca bc f5 ab d6 bc c5 a9 10 bc d7 26 cf bb
       -0.0247639 -0.026205042 -0.008829539 -0.0063217687
000080 00 13 af ba 88 e3 19 bd 15 e1 8a bc 45 f7 f8 bb
       -0.0013357103 -0.037570506 -0.01695303 -0.007597836
000090 2e db 07 bd 6e 68 76 bc 4a 41 e8 bc 0b 91 b6 bc
       -0.03316801 -0.015039546 -0.028351445 -0.022285959
0000a0 19 bf c9 3a df 4c b1 bc 80 e9 ea bc a7 51 3e 3b
       0.0015392035 -0.0216431 -0.028675795 0.0029040368
0000b0 a7 69 6c bd 71 89 d9 bc d6 8b 8b bc 14 44 a8 bc
       -0.057717945 -0.026554795 -0.017034452 -0.020540275
0000c0 9b ed 91 bc 66 a5 ce bc eb 01 e3 3c 1d b3 a5 3b
       -0.017813494 -0.025225352 0.027710875 0.0050567524
0000d0 86 dc d1 bc d2 6c 20 bd cb 5e 51 b9 2b 08 aa bc
       -0.02561785 -0.03916628 -0.00019967106 -0.020755848
0000e0 1a 0c f1 3b 95 9d 26 bc 5f 3b 24 bd 82 a2 a6 bc
       0.007356179 -0.010169406 -0.040095683 -0.020341162
0000f0 75 f9 51 3c 7e a4 dd bc 3e 3a 5e bc 2f 84 96 3a
       0.012815823 -0.027055975 -0.013563691 0.0011483486
000100 7f d3 f6 bc e2 1d d3 bb e1 f7 8d bb 92 9b 9f bc
       -0.030130146 -0.0064427713 -0.004332528 -0.019483361
000110 f1 66 38 bc a6 ce 73 bc 6b d9 c2 bc 1e 20 e3 ba
       -0.011255012 -0.014880812 -0.023785314 -0.0017328297
000120 fa 72 b5 bc 83 36 8b 3c 48 07 fb bc f5 43 14 bd
       -0.022149552 0.016993767 -0.03064312 -0.03619762
000130 82 6c ad bb 81 e8 80 bc 12 f2 a7 bc 9d 70 de ba
       -0.005292476 -0.015735867 -0.02050117 -0.0016970817
000140 ab 5f 21 bc d7 2d 67 bc 81 db 32 bb 31 c3 0d bd
       -0.009849469 -0.01411005 -0.002729148 -0.034609977
000150 2a 84 b7 bc 6c 0b bb bb ea eb e1 bb b4 62 1d bc
       -0.022401888 -0.0057081487 -0.006894578 -0.009606052
000160 eb 03 0d bd 02 01 24 bd 60 37 b8 bc 0a 07 f0 bc
       -0.034427565 -0.040040024 -0.022487342 -0.029300231
000170 3b ab df bb 6b 50 5b bc 68 9b 0c bd 99 1f 97 bc
       -0.006825832 -0.013385872 -0.034327894 -0.018447684
000180 c0 5e 82 3a af f2 b1 3b 26 e7 57 bc a6 c9 26 bd
       0.0009946451 0.0054305415 -0.013177669 -0.04071965
000190 d8 fc fa bc 6f d2 2b bc 7b 6a 56 bc 7e 35 ad bc
       -0.030638143 -0.010487183 -0.01308691 -0.021143671
0001a0 af 06 c2 bc 86 2c e0 bc ad 56 80 bc 64 b1 3b bd
       -0.023684828 -0.02736498 -0.01566633 -0.04582347
0001b0 1b 30 98 bc e8 2b 10 bd 63 61 07 ba e8 43 82 bc
       -0.018577626 -0.035198122 -0.0005164353 -0.01590152
0001c0 4a 22 9b bc 1b d9 07 bd 60 44 03 bd 44 f0 4b 3c
       -0.018937249 -0.033166032 -0.03204763 0.0124474205
0001d0 70 64 d8 bc c5 7a 16 bd 67 dd c0 bc 41 9b 18 bd
       -0.02641508 -0.036738176 -0.023543073 -0.037257437
0001e0 cc c7 3c bc 05 43 6c bc 81 c5 a8 bc 9b a5 70 bc
       -0.011522245 -0.014420276 -0.02060199 -0.014687921
0001f0 58 94 be bc a2 c5 9d bc f1 0f c0 bc 27 51 59 bd
       -0.023264095 -0.019259278 -0.023445101 -0.05305591
000200 e1 0f 8d bb 0e 21 ab bb 4f e5 e6 bc 35 fe 3b 39
       -0.0043048714 -0.0052224463 -0.028185515 0.00017928409
000210 df 69 cf bc 98 9b 45 bc ba 2a ce bc 5d e4 48 bc
       -0.025319038 -0.012061022 -0.025166858 -0.012261477
000220 81 0c b5 bc 58 92 a2 ba d7 62 84 bc ba a7 d2 bb
       -0.022100689 -0.0012403233 -0.016160412 -0.006428686
000230 c0 00 fa bc 0f 94 62 bc 85 45 df bc a5 da c7 bc
       -0.030517936 -0.013829245 -0.02725483 -0.02439625
000240 93 ab 7f bb cf fc ac bb 51 91 c3 bc 86 86 7c bc
       -0.0039012178 -0.0052791606 -0.023873003 -0.015412932
000250 38 e1 9b bc 1e ff e7 bc fd c4 0b 3b 28 c9 c4 bc
       -0.019028291 -0.028319892 0.002132713 -0.0240217
000260 73 48 43 bd 56 97 f9 bc 07 f5 be bc 0c 52 0e bd
       -0.047676515 -0.03046767 -0.023310198 -0.034746215
000270 8a 0b 0b bc 90 7c 14 bd 75 e1 28 bd ab 67 2d bd
       -0.008486638 -0.036251605 -0.041230638 -0.042335194
000280 c0 c7 0f bd 1f 0a c4 3b d3 4f 51 bb d6 ea 79 bb
       -0.035102606 0.005982652 -0.0031938448 -0.0038134358
000290 de 97 70 bc 4c a8 3d bd cd a7 11 bc 81 e8 87 bc
       -0.014684645 -0.04630308 -0.0088901045 -0.016590359
0002a0 f8 57 52 ba 10 cf 95 bc bc 53 82 bc b1 42 06 bd
       -0.00080239726 -0.018287212 -0.015909068 -0.032778446
0002b0 71 fe f2 bb ff 65 b5 ba c0 3f a1 bc b7 90 e0 bc
       -0.0074155857 -0.0013839601 -0.019683719 -0.027412755
0002c0 0b 22 ae bc ed f6 34 bd 8b 95 0d 3c 06 a3 8a bc
       -0.021256467 -0.0441808 0.008641611 -0.016923439
0002d0 8b 3f 1e 3c 60 2c b7 bc a0 2a 72 bc 87 fe 87 3b
       0.0096587045 -0.022360027 -0.01478067 0.004150215
0002e0 ad 2e 12 bd 6e e7 0a bc e7 fb 0e bd ac f8 32 bc
       -0.035689045 -0.008478029 -0.0349082 -0.010923546
0002f0 72 26 e7 3a 1c bf 8e bc 5e 55 11 bd e5 dc d0 bc
       0.0017635359 -0.017425112 -0.035481803 -0.025495956

model.2.weight f4 [256, 192]
000000 94 f8 58 bd fc 8c b6 bc 6a 37 6c bc 12 fc 59 bd
       -0.052971438 -0.022284023 -0.014417509 -0.05321891
000010 f5 72 f8 3c 2e 40 87 3d 85 e8 03 be 1b 37 4d bd
       0.030328253 0.06604038 -0.12881668 -0.05010138
000020 39 79 8a 3d e6 cb 2a 3d 50 72 72 3e 78 fe d0 bd
       0.06761403 0.04169836 0.2367642 -0.10204786
000030 5b 87 b4 bd 34 76 13 3e 95 ed 9b 3d e7 18 06 bd
       -0.088148795 0.1440056 0.076136746 -0.032738592
000040 07 e5 ea bc 3b a6 02 3e 74 95 c2 3d 6b ac 15 bd
       -0.028673662 0.12758724 0.09501162 -0.036541384
000050 a9 e4 e0 3d bd 2e 00 be e1 31 61 bd 27 60 15 3e
       0.109811135 -0.12517829 -0.05497921 0.1458746
000060 a1 4d b7 bd 6f f9 9b 3d d2 4f bb bc 19 c9 5d 3d
       -0.089503534 0.07615935 -0.02286521 0.05414686
000070 99 e3 8a 3c dd 96 22 3e 9c ec 0a 3c d9 2d ab 3d
       0.01695423 0.15877862 0.008479264 0.08358354
000080 11 84 a9 bd 48 bb ef bd 4a 1e 01 3e 72 ee e4 bc
       -0.08277143 -0.11705643 0.1260921 -0.02794573
000090 4c 16 06 3e 68 bd 84 bd bf 43 19 3d 8a 0b 2e 3e
       0.13094443 -0.06481439 0.037418123 0.1699659
0000a0 fc 73 2b 3b 0b 2d 80 3e a3 57 ff bc 38 cb 3c 3d
       0.0026161661 0.25034365 -0.031169718 0.046092242
0000b0 db a8 d5 3d 62 1d f3 3d 1c fb 0c 3e 32 c6 93 3d
       0.10432597 0.11870839 0.13767666 0.07215537
0000c0 a1 1e af bd 6f 40 10 bd 8d f9 9c bd fa a4 14 3c
       -0.08550764 -0.0352177 -0.076647855 0.009072537
0000d0 69 a4 4c be cd 17 79 3d 48 5a 76 3c d7 8f 1b be
       -0.19984592 0.060813714 0.015036173 -0.1519159
0000e0 52 de 60 3d 7a 9d da 3d 6a 13 34 3e d6 f1 8f 3d
       0.05489952 0.106745675 0.17585531 0.070285484
0000f0 c2 05 0c 3c 4f dc ee 3c fb 58 d6 3b 0b a7 d9 bd
       0.008546295 0.029157786 0.006541369 -0.10627564
000100 29 3c ac bd ab 0a 22 3d 29 49 d2 3d 52 aa 9d be
       -0.08409912 0.039560955 0.102678604 -0.30794007
000110 33 2f 06 be b6 2e cb 3c 57 87 c3 3d c6 bc 39 bb
       -0.13103943 0.024802547 0.095472984 -0.0028341278
000120 0b 6d d8 bd ce 08 2d be bd 35 34 3d 3a 53 14 be
       -0.10567673 -0.1689789 0.04399656 -0.14484873
000130 c5 32 a7 3d f3 30 69 bc 0b 99 b9 3b 03 7f 3d bb
       0.081639804 -0.014232862 0.005663996 -0.0028914816
000140 84 ad 12 bc 27 e9 dd bd 5b f8 55 3c 98 68 82 3d
       -0.008952502 -0.10835486 0.013059701 0.06367606
000150 83 fd f2 3d 9d 92 2d 3d c6 da 91 3c 36 36 5a bd
       0.1186476 0.04237615 0.017804515 -0.053274356
000160 73 96 65 3c d3 3d 7f bc fd 89 b6 bc cb e4 41 3d
       0.014012921 -0.015578705 -0.022282595 0.047337335
000170 63 80 60 3d c4 03 a0 bc 31 53 59 3d 31 b0 ed bc
       0.05480994 -0.019533046 0.053057853 -0.029014679
000180 22 2f 42 3e 42 23 df bd 63 89 c9 3d 31 58 1c bd
       0.18963292 -0.10895397 0.098406576 -0.038170043
000190 70 34 73 bd 8e 20 a1 3c 62 8c 9e 3c a7 5b 0c 3e
       -0.05937618 0.019668844 0.01935405 0.13706838
0001a0 c7 15 3c bd 10 03 f5 bc a4 a0 3c bd 73 c8 a1 3d
       -0.045919206 -0.029908687 -0.046051636 0.07899561
0001b0 1a 92 2e 3e eb 23 b0 3c 55 a3 50 bd be 63 10 be
       0.17047921 0.021501502 -0.050937016 -0.14100549
0001c0 cd e1 09 bb f0 25 93 3d 04 db dd bc fd aa b3 bc
       -0.0021039129 0.071849704 -0.027081974 -0.02193212
0001d0 10 2c 75 bd 12 27 11 bd 86 bf 13 3c 30 e2 39 3c
       -0.059856474 -0.03543765 0.009017831 0.011345431
0001e0 c0 92 57 3d 47 0b d4 bd 21 8d da 3d 91 c9 e9 3c
       0.052630186 -0.103537135 0.106714495 0.028538497
0001f0 b6 88 c0 bd e7 07 fa bd cb fd c4 bd 71 ef ca bd
       -0.094010755 -0.122085385 -0.0961872 -0.09908951
000200 ee 88 28 3e e2 c9 0d 3e f6 88 97 3d f4 2d 3f be
       0.16458485 0.13846543 0.0739917 -0.18669873
000210 c0 46 bd bb c1 63 07 bd 1c 55 a8 3b 20 f2 d8 bd
       -0.0057762563 -0.033054117 0.005137099 -0.10593057
000220 2a 6f 11 bd a6 98 d9 bd db d9 fc 3a 11 cf d8 3c
       -0.035506405 -0.106248185 0.0019291 0.026465924
000230 72 f0 08 be 2b 46 30 be 3b 4a 43 3d 64 b2 3d 3e
       -0.13372973 -0.17214267 0.047678214 0.18525082
000240 53 00 be 3d aa bb 74 3d 08 42 49 bd cc 91 5d be
       0.092774056 0.059749283 -0.049135238 -0.21637648
000250 3d b3 8f 3d 0b 13 f4 3d 61 fd 03 3c 04 14 ce bd
       0.07016609 0.11917695 0.008056016 -0.100624114
000260 13 2b 09 be 3b 18 c0 bd 5a 1a aa bc 43 19 4b be
       -0.13395338 -0.093796216 -0.020764519 -0.19833855
000270 1f ca fe bd ac 24 06 3d 7f 00 5a bd cf b4 6d bd
       -0.12440895 0.032749817 -0.05322313 -0.05803376
000280 49 66 28 3d 13 79 32 bd b5 2c 50 3e 0e ec a7 3d
       0.04111317 -0.043572497 0.20329554 0.08199321
000290 5f 25 16 be 35 15 8a bd 6f c5 5a 3d 36 3a 0f 3e
       -0.14662693 -0.06742326 0.053410944 0.1398705
0002a0 ee a5 81 bc c6 14 75 be bf 2d cf 3d 8b e5 50 bd
       -0.015826192 -0.23933706 0.10116147 -0.05100016
0002b0 14 6e ab 3d d9 5f d5 bd d9 30 f3 3d 8e 5e c6 bd
       0.08370605 -0.10418672 0.11874551 -0.096860036
0002c0 c5 59 b8 bc b0 5c ab 3d d6 a7 fa bc ac ae 7b 3d
       -0.022503743 0.08367288 -0.030597609 0.061445877
0002d0 b8 b5 0d be b9 d1 83 bd da 01 80 3d 5f 07 a2 3d
       -0.13838851 -0.06436486 0.06250353 0.07911562
0002e0 0c 27 b8 3d a1 71 9b bd 86 25 15 be c5 27 2d 3e
       0.089918226 -0.07590032 -0.14565095 0.16909702
0002f0 78 af 86 bb 4d 59 12 be b7 dd 1c 3b 87 6d b1 bd
       -0.004110273 -0.14291878 0.0023935863 -0.08663469
000300 c4 aa b6 bb e2 fe 72 be fd 6a 05 bd b6 3c af bd
       -0.005574556 -0.23730043 -0.032572735 -0.085565016
000310 b9 85 2f bd 13 49 5d 3c 04 00 a6 3d 82 8a a3 3d
       -0.042852137 0.013506192 0.08105472 0.07985403
000320 27 a5 0f 3e 4f 51 b0 3d d4 f2 35 3d 6a e4 8c be
       0.14027844 0.086092584 0.044421032 -0.27518016
000330 19 fb fc 3d 66 d9 df 3d 91 1d d6 bc 52 17 83 bd
       0.123525806 0.10930137 -0.026137145 -0.06400932
000340 9e 8f 25 3d 65 da 59 3e 8d 73 a9 3d 94 8d cf bd
       0.040420167 0.21274717 0.08273993 -0.10134426
000350 83 e2 5e bd 4e 8e 2a be e0 c6 2d be 6e 28 03 bd
       -0.054415237 -0.16655847 -0.16970396 -0.03202098
000360 8f c6 59 3d e3 60 f7 3d e8 99 d6 3b 38 e5 f5 bd
       0.053167876 0.120790266 0.006549109 -0.12006611
000370 62 d4 99 bc 97 c4 c7 3d e4 9f c9 bd 34 e7 02 3e
       -0.01877803 0.097542934 -0.0984495 0.1278351
000380 e5 53 12 3d 60 06 a1 3c 7a 8b b9 3c b4 8e c5 3d
       0.03572454 0.01965636 0.022649515 0.09646359
000390 6d 22 1a bc ce 54 46 bd 5a 67 6b bc b2 f0 22 be
       -0.009407622 -0.04842072 -0.014367903 -0.1591213
0003a0 f1 90 7b 3d 22 5f 0f 3d 84 f6 27 bc c7 3d 8a 3d
       0.061417524 0.035002835 -0.010251645 0.06750064
0003b0 41 12 4c 3d 88 64 62 3d ce e5 3b 3e db 06 da 3d
       0.049822096 0.055271655 0.18349382 0.10645839
0003c0 02 1d 98 3d d5 90 09 be dc d0 92 bc 53 2f 5e be
       0.07427408 -0.13434155 -0.017921858 -0.2169774
0003d0 62 07 7e 3c 95 90 47 be 4f 0a 07 3e 5c cc 59 bd
       0.01550469 -0.19488747 0.13187526 -0.053173408
0003e0 09 7b f5 bc 47 24 0a 3d 88 85 b9 bd b8 d9 30 be
       -0.029965894 0.033726003 -0.09058672 -0.17270553
0003f0 8a c5 2e bc c0 e2 4a be 82 9f 05 bd 20 84 3d 3d
       -0.010667214 -0.19813061 -0.03262282 0.046268582

model.2.bias f4 [256]
000000 0b 0c ec 3a 23 17 7e bb 01 c2 14 bc 9e 27 bb bb
       0.001800896 -0.0038771115 -0.009079457 -0.00571151
000010 3c 29 7d 3b 41 32 5a bc ee 4e e7 bc 6a 22 a8 3b
       0.0038629314 -0.0133176455 -0.028235879 0.0051310556
000020 cf 32 a9 38 a7 20 9f bc a3 58 6b bc a3 a0 6b bc
       8.068012e-05 -0.01942475 -0.014364394 -0.0143815605
000030 07 12 e2 bb f2 03 a7 3a d6 96 02 bc ec 80 a0 bc
       -0.0068991217 0.0012742265 -0.007970532 -0.019592725
000040 5c b4 22 ba b4 53 48 bc b9 a2 55 bc 2d 3e 75 bc
       -0.0006206685 -0.012226988 -0.013039284 -0.014968437
000050 98 fa 9a bc a7 e3 aa bb 2b 0e 2c 3c ae 06 cc bc
       -0.01891832 -0.0052151266 0.010501425 -0.024905529
000060 dc df 72 bc 00 3e 8b bc 78 67 44 bc eb 33 dd bc
       -0.01482388 -0.016997337 -0.0119875595 -0.027002295
000070 23 88 83 bc 7b 46 19 bc 85 e7 95 bc 4e ee e4 bb
       -0.016056126 -0.009355183 -0.018298874 -0.006986416
000080 28 32 af bc 37 1b 01 bd b2 39 4b bc 26 a9 82 bc
       -0.021386221 -0.031520095 -0.012403892 -0.015949797
000090 50 46 3d bc f6 3b f6 bc 0f c9 b5 bb 6b 1b de bc
       -0.011552408 -0.030057888 -0.0055476497 -0.027112683
0000a0 9f ea 77 ba 24 3e 49 bb ec 49 af bb 5c 7b d9 bc
       -0.00094572635 -0.0030707205 -0.0053493883 -0.02654808
0000b0 ef 30 27 bc 8a c9 2c bc 7d 4d e7 bb 41 dd d8 bc
       -0.010204538 -0.0105460975 -0.007058798 -0.02647269
0000c0 c7 1c ac 3b 7b 6b ad bb ea 9e 1e bc d0 b8 a0 bc
       0.005252454 -0.0052923537 -0.009681443 -0.019619375
0000d0 5a 9e 8f bc 34 72 80 bb 98 d3 89 bc 55 7b f4 bb
       -0.017531563 -0.003919864 -0.016824529 -0.0074609914
0000e0 38 06 7b bb f8 c6 e6 bc 62 32 af bc 7a ba fd bc
       -0.0038303267 -0.028171048 -0.02138633 -0.030972708
0000f0 94 38 3a bb 73 65 0e bc ce b2 d5 bb 3f 32 00 bd
       -0.002841507 -0.00869118 -0.0065215593 -0.03129792
000100 8f b0 a8 bc b6 44 1a bb f6 f0 a8 bc f0 da 35 bb
       -0.020592002 -0.002353949 -0.020622712 -0.0027748905
000110 9a ca 5b bc 0d b7 ab 3b 45 ed c8 bc e0 2e 87 3b
       -0.013415003 0.005240327 -0.024527201 0.004125461
000120 93 1b 75 bc 0e 50 75 bc 2a 94 ba bc ba 73 85 bc
       -0.0149601875 -0.0149727 -0.022775728 -0.016290534
000130 1c a4 01 bc 42 36 85 bb 94 95 71 bc e8 07 a0 bc
       -0.007912662 -0.004065306 -0.014745135 -0.01953502
000140 cf b6 61 bc e8 16 48 bc 54 5c 5f bb 3d b2 47 bb
       -0.013776495 -0.0122124925 -0.0034082131 -0.0030471229
000150 5a 9d 99 bc c1 45 10 bd 5f 88 18 3c cb c4 fd bb
       -0.018751789 -0.035222773 0.009309857 -0.007744407
000160 b6 ab 4b bb 3e 28 9b bc b5 ff 1c bd b9 47 4e bc
       -0.003107769 -0.018940087 -0.0383298 -0.012590342
000170 59 0d 0d bc 57 d9 f3 bc 9f ea 92 bc f2 99 ad bc
       -0.008609139 -0.029766722 -0.017934142 -0.02119157
000180 59 dc e5 bb 3e 7e f4 bc 1d a8 df bc dc 8c 93 bc
       -0.007014793 -0.029845353 -0.027301842 -0.018011503
000190 d9 24 80 bc f3 f4 fe 3b 3d fa ff 3b 67 a6 8d bc
       -0.01564257 0.007780665 0.007811813 -0.01729126
0001a0 d6 64 63 3a 2b 5d 46 bb 89 13 2b bd 3f 4c 56 bc
       0.00086743885 -0.0030267935 -0.041766677 -0.013079702
0001b0 63 1a 28 bc f1 73 24 3c e6 5c c2 bb 09 33 b3 bc
       -0.010260197 0.010037408 -0.0059314845 -0.021874921
0001c0 32 b0 e2 bb 6f 40 93 ba eb 3e 50 bc 48 b1 ca bc
       -0.006917977 -0.0011234413 -0.012710313 -0.024742737
0001d0 b5 be fa bb 5f 8e 1a bb 7e f1 61 bc 32 46 48 bc
       -0.0076521286 -0.0023583395 -0.013790486 -0.012223767
0001e0 0b b4 6d bc 67 5c 1b bc cb 51 c0 bc f3 7b 10 bb
       -0.014508258 -0.00948248 -0.023476502 -0.0022046536
0001f0 4e 90 f6 bb 40 dd c8 3a 39 da cf bc 2c 5a 18 bc
       -0.0075245267 0.0015324727 -0.025372611 -0.009298842
000200 c4 4a b0 bc 51 e6 8b bc 92 58 bd bc 52 32 d3 bc
       -0.021520026 -0.017077597 -0.023113523 -0.02578083
000210 0b 8d 52 bc 40 b7 bf bc e8 1c fc bc cd 37 a3 bc
       -0.01285101 -0.02340281 -0.030775502 -0.019924069
000220 64 4d e7 bb b3 4c 12 ba b9 53 46 bc 20 be f0 bc
       -0.007058786 -0.0005580887 -0.012104922 -0.029387534
000230 7b 82 b7 bb 85 4c 7f ba f7 21 09 bc 82 1d 08 bd
       -0.0056002713 -0.00097388803 -0.008369914 -0.033231266
000240 fd 56 be ba cb c1 b9 3a 61 a0 7b 3b 78 41 0d bc
       -0.0014521774 0.0014172135 0.0038395154 -0.008621566
000250 b1 f4 b6 bb 3e 88 1e bd 96 94 c6 bc 20 2f 0f bb
       -0.0055833687 -0.03870415 -0.024240773 -0.0021848157
000260 44 02 ad 3b c8 44 14 bc af 38 8f bc f8 69 d3 bc
       0.005279811 -0.009049602 -0.017483084 -0.025807366
000270 42 49 4b bb 26 33 b4 3c a3 87 4e bb 16 97 bf bb
       -0.0031019007 0.021997046 -0.0031513951 -0.0058468683
000280 d3 b0 0c bc ee be 91 bc e5 a4 a8 bc 62 a7 25 b9
       -0.00858708 -0.017791238 -0.02058644 -0.00015797981
000290 16 e1 27 bc 6e eb e1 bb ac ca 7a ba a3 41 80 bc
       -0.010246536 -0.0068945205 -0.00095669436 -0.015656298
0002a0 8e 5a 20 3c 29 13 63 bb 75 f1 51 bc d4 e9 8d bc
       0.009787215 -0.0034648872 -0.0128139155 -0.017323412
0002b0 c4 bd 04 bc 99 74 d4 bb 7b ac 0e bd 5a 8f 2b 3c
       -0.008101884 -0.006483626 -0.03483246 0.010471189
0002c0 27 75 03 bc 13 2e 2b bc f3 3b ec bb 4b 34 24 bc
       -0.008023537 -0.010447997 -0.007209295 -0.010022233
0002d0 8b ee 49 bc 42 58 b8 bc 24 8c a6 bc cb 5a 8b bb
       -0.0123249395 -0.022503022 -0.020330496 -0.0042527667
0002e0 e0 d8 c0 ba 86 92 48 3c fb 1d f5 bb 78 72 80 3b
       -0.0014713071 0.012241965 -0.0074803806 0.0039198957
0002f0 7d 3c 77 3c e3 8c 9e 3b 37 d5 3c bc be 69 ae bb
       0.015090105 0.0048385723 -0.011525444 -0.005322664
000300 66 51 12 bc 44 5f 4a bb 78 b7 35 bc 90 57 a8 bb
       -0.00893054 -0.0030879537 -0.011091106 -0.0051373914
000310 df d4 4b bb a6 45 36 3b 0c af d2 3a 6f 93 ee 3b
       -0.0031102223 0.002781251 0.0016073897 0.007280759
000320 9f f3 de bb 4e 1b a5 bb d2 31 6d bc 10 00 7a bc
       -0.0068039442 -0.0050386554 -0.01447721 -0.015258804
000330 c1 57 97 bc 1b 3c 9d 3b 36 a2 c6 bb e3 40 22 bc
       -0.018474462 0.004798425 -0.0060618175 -0.0099031655
000340 63 90 6f bc 48 f7 82 bc 1c 70 9b 3b 80 52 fb ba
       -0.014621827 -0.015987054 0.004743589 -0.0019174367
000350 6d 0d 9c bc fc 18 41 bc 97 c6 ba bc 00 85 10 3c
       -0.01904937 -0.011785742 -0.022799773 0.008820772
000360 8a 45 40 bc 7c 13 0d bc f3 50 a8 3a 6b b9 c3 b9
       -0.011735329 -0.0086106025 0.0012841508 -0.00037331445
000370 2f 36 65 bb dd ad c0 bc 95 28 02 bd ab 30 99 bb
       -0.0034974923 -0.023520404 -0.031776983 -0.004674991
000380 1d e5 23 3c 13 c6 ac bc 6e 36 bb bb f8 88 7f bc
       0.010003355 -0.021090543 -0.0057132756 -0.015596621
000390 55 9d 80 ba b0 35 91 bb de c0 8b 3b 6a a4 7b bc
       -0.0009812514 -0.004431449 0.004264935 -0.015359024
0003a0 aa e3 58 bc 5f 24 e8 bc 5e fc 62 bc 8c ea e7 3a
       -0.013237873 -0.028337656 -0.013854114 0.0017693802
0003b0 82 00 37 3c 89 78 82 bc ea 9e 8c 3b 3b 13 be bb
       0.011169555 -0.015926616 0.004291405 -0.0058006323
0003c0 ab 78 80 bb cf 70 1e bc 62 11 ab bc 2e fe e7 3b
       -0.0039206347 -0.00967045 -0.020882312 0.007079861
0003d0 2d 1c 14 bd d5 67 3b ba af ea 97 bc e0 df a7 bb
       -0.036159683 -0.0007148956 -0.018544523 -0.0051231235
0003e0 31 b3 3d bc 79 e9 8d bc b1 e3 ea bb 53 14 bd bc
       -0.011578367 -0.017323243 -0.007168256 -0.02308098
0003f0 d4 30 80 3c 93 28 a4 bc 1d 5f a3 bc 65 1f 27 bb
       0.015648283 -0.020038879 -0.019942814 -0.002550089

model.4.weight f4 [512, 256]
000000 dd ab 52 3d 9a a1 e7 bc c2 a9 a2 3c 77 84 4f 3d
       0.051433433 -0.0282753 0.019856337 0.050663438
000010 52 6e 54 3d c7 c0 a8 bd b7 e0 20 3d ae bd 94 3c
       0.051863022 -0.08239894 0.039276805 0.018156853
000020 07 83 2c 3d 85 8a 18 3d e9 5f 2f be 6b 6a 2d bd
       0.042117145 0.037241478 -0.1712643 -0.042337816
000030 c2 5f 6d 3c 53 06 7f bd 69 fc bc 3d ee ef bf bd
       0.0144881625 -0.06226189 0.09227831 -0.09371935
000040 9f d7 76 3d bb ec 7e 3d ce 2e d1 3d 02 90 07 bc
       0.060264226 0.062237483 0.102140054 -0.00827408
000050 22 0f e4 bd b1 b2 07 bd 82 bf 16 bb 4e b3 02 be
       -0.11135699 -0.033129398 -0.002300233 -0.12763712
000060 60 24 7a bd 4a 83 29 3d a5 9b 43 3d 63 fd 25 bd
       -0.061069846 0.041384973 0.047755856 -0.04052485
000070 a1 ef db 3c d9 9a 72 3d 52 2a a1 bd 87 f2 16 3d
       0.026847662 0.059229705 -0.078694 0.036852386
000080 58 38 8e 3d 2b 83 48 3d 9a 07 91 bc b1 ab 00 be
       0.069443405 0.048953217 -0.01770382 -0.12565495
000090 e2 32 0c 3b 56 fc 85 3d 7f 30 97 3d 79 b3 90 bd
       0.0021392633 0.0654227 0.07382297 -0.07065482
0000a0 2e 15 9c bc 5f 83 55 bc ff 3f 18 3d 0f 7e ba 3d
       -0.019053068 -0.01303181 0.037170406 0.09106075
0000b0 12 b5 03 3d a3 d0 53 bd 53 d4 50 3c 91 47 08 be
       0.032155104 -0.051712643 0.012745935 -0.1330855
0000c0 91 31 72 bd 3d 78 07 be 9b c7 f8 bd 36 af 32 bc
       -0.0591293 -0.13229461 -0.12147447 -0.010906031
0000d0 e8 c0 bb 3c 61 a7 1c 3e df c7 05 3c 36 e2 47 3e
       0.022919133 0.15298225 0.008165329 0.19519886
0000e0 d9 5a a0 bc 3a 61 de bd 7e d0 c6 3d 1d 42 a4 bc
       -0.01957457 -0.10858388 0.097077355 -0.020051057
0000f0 c2 b3 08 bd 5b 3f d9 bd 1a 7a c5 bd 74 38 bb bd
       -0.033374555 -0.10607787 -0.0964243 -0.09141627
000100 fd 95 cc bb 3e 52 9a bd a2 b0 12 3d 58 89 84 3c
       -0.006243466 -0.07535218 0.03581298 0.016178772
000110 63 66 ce bd ca 5a 91 bd 06 d0 ba 3a 2f 41 d7 3c
       -0.100781225 -0.07097395 0.001425267 0.0262762
000120 b0 34 ec bd c4 a2 db bd 5a 48 b4 3d a7 56 99 3a
       -0.11533487 -0.107244045 0.088028625 0.0011698798
000130 c9 b9 85 bd 92 4c 83 bd b6 22 30 bc ba 87 4e be
       -0.06529576 -0.06411089 -0.010750463 -0.20168963
000140 11 38 a4 3d 96 15 5d bd 43 dc 80 bc 14 61 b1 bc
       0.08018506 -0.053975664 -0.015730029 -0.021652736
000150 9c f4 20 3e 5b c6 ad bd 9e a3 b5 bd ec 5b 64 3d
       0.15718311 -0.08485099 -0.08869098 0.055751726
000160 3d d3 9d 3a dd 75 d3 bd b9 76 b5 3c 50 87 a6 bc
       0.0012041103 -0.10325215 0.022151338 -0.020328194
000170 a5 aa 3d 3d c6 f6 54 bc 12 af b8 3d 40 16 96 bd
       0.046305317 -0.0129982885 0.09017767 -0.073284626
000180 3d 91 f9 3c c0 d7 e1 bd b8 68 8b bc 50 48 2e bd
       0.030464763 -0.11027479 -0.017017707 -0.04254943
000190 b5 f2 90 3b be 4f d9 bd 39 48 cf bc ff 06 50 bd
       0.004423464 -0.10610913 -0.025302993 -0.050787922
0001a0 7b 84 6b bd 6c 85 2f 3e 04 d2 d3 3d 05 54 19 bd
       -0.05749939 0.1714074 0.10342792 -0.037433643
0001b0 12 df 63 bd aa ef 20 bd be 9f 34 bd 4d 6d 7e 3c
       -0.05563266 -0.03929106 -0.044097655 0.015528989
0001c0 30 1f ea bd c2 70 4d 3d 11 7f 19 be d5 09 4a 3c
       -0.1143173 0.050156362 -0.14989878 0.012331446
0001d0 72 0c 49 ba 4d ab e9 bb 20 5c ad 3b 76 22 95 3d
       -0.0007669396 -0.0071310163 0.005290523 0.072819635
0001e0 c0 81 be bd 49 d2 f2 3d 8b 93 44 3c 31 cf 62 3d
       -0.093020916 0.11856515 0.011998068 0.055373374
0001f0 2a 1a fd bd 87 59 b2 bc f3 ee 08 3e 7c c7 44 bd
       -0.12358506 -0.021771206 0.13372402 -0.048041806
000200 31 51 dc 3c 71 ba 24 bc ea 96 b3 bd 68 01 d8 3d
       0.026894184 -0.010054217 -0.08769019 0.10547143
000210 bc 24 22 3d 44 61 55 bd df 3b 47 3d 82 97 3a 3b
       0.039585814 -0.052094713 0.048641082 0.0028471653
000220 e4 94 af 3d 74 f6 79 3b f2 90 92 3c 91 32 a0 bb
       0.085733205 0.0038141282 0.017891381 -0.0048888405
000230 72 ad a3 3c 7d 6c 82 3d 64 d0 d3 bb 7c e8 fb 3d
       0.019980166 0.06368349 -0.006464051 0.12300202
000240 bd 5d 95 3c 40 f8 bd 3c 4a bc 5f bd 0e 0a 0e bd
       0.018233174 0.023189664 -0.054622926 -0.034677558
000250 17 2d 98 bc 58 c4 bb bc 7c 33 27 bd e1 c8 88 3d
       -0.018576188 -0.022920772 -0.040820584 0.066789396
000260 85 c8 0d be d6 16 61 bc 10 c3 02 be 27 88 bd bd
       -0.13846023 -0.013738355 -0.12769723 -0.092544846
000270 89 ba 04 3e a1 42 0f bc 6e 6c 8c bc f1 85 c9 bd
       0.12961783 -0.008743913 -0.017141547 -0.098400004
000280 b2 d6 27 be 0d 78 93 bc 16 67 d6 3c de e3 27 3d
       -0.16390494 -0.01800158 0.026172202 0.040988795
000290 a2 de 15 bd d2 33 71 3d 28 87 17 3e 78 88 30 3e
       -0.036589272 0.05888731 0.14797652 0.17239559
0002a0 3e 33 b6 3d 6d ac 0e 3d fa 28 cd 3c f7 4b 0d be
       0.088964924 0.034832407 0.025043953 -0.1379851
0002b0 fe 62 4e 3e 97 df 44 3e 65 a0 e6 bd 91 04 8d 3c
       0.2015495 0.19225918 -0.112610616 0.017214091
0002c0 7f ff 6e bd 45 3e 7b bd 7b 2b 1e be 8b 03 5c 3d
       -0.05834913 -0.06133868 -0.15446274 0.053714316
0002d0 e9 13 f3 3c 43 24 87 3d 6d ac cd bd 2e 9a 5f bc
       0.02967258 0.06598713 -0.10042653 -0.013647599
0002e0 5c 0e e3 b9 db 85 3a 3d e8 2f 81 3d be f4 44 bd
       -0.00043307513 0.04553781 0.063079655 -0.048084967
0002f0 88 f5 db 3d 19 76 af 3d f5 34 ae bc e8 59 ee 3c
       0.10740191 0.08567447 -0.021265486 0.029095605
000300 43 fa 93 3d 07 d5 72 bd af 41 9e bd e4 b5 9a 3d
       0.07225468 -0.05928519 -0.07727372 0.07554224
000310 23 24 65 3d df 03 bd bd 6c cf 21 3e 68 f0 fc bc
       0.055942666 -0.09229254 0.15801781 -0.030876353
000320 3b 1d db bd 29 df 39 3d 3c 11 0a be e5 62 3c be
       -0.10698935 0.045378838 -0.13483137 -0.183971
000330 2b f2 a2 3d f1 f8 aa bc ef d0 e1 3c cf 05 21 3d
       0.07956346 -0.020870658 0.027565448 0.03931218
000340 2f 72 ed 3b 19 79 c8 bc 0a e3 bb 3c 8b 65 2a 3d
       0.0072462778 -0.024471806 0.02293541 0.041600745
000350 86 32 17 be d3 6d 81 3d 32 b5 51 bd 8e 20 f3 3d
       -0.14765367 0.063197754 -0.051198192 0.11871444
000360 59 3b 97 3d c4 29 b9 3d a9 f8 04 bd be 0c 37 3a
       0.073843665 0.09041169 -0.032463703 0.0006982795
000370 96 15 60 3d f6 c4 9b 3c 9b c1 7b bd 15 21 35 bc
       0.054708086 0.019014817 -0.061463933 -0.011055251
000380 7c 2c a9 bd db 9a 9e 3c 67 1b 85 bd 44 4e c6 3d
       -0.08260438 0.01936095 -0.06499367 0.09682897
000390 b1 c1 4c 3d 88 e1 84 3d 38 1e 95 bd f4 cd b2 3d
       0.049989406 0.06488329 -0.072811544 0.08730689
0003a0 9d be b7 3d 7d 4b 22 be 26 1d 1b be 53 81 57 bd
       0.089719035 -0.15849109 -0.15147838 -0.052613568
0003b0 1d 13 0e bd 56 a8 a0 3d 69 39 50 3e d8 47 9b bd
       -0.034686197 0.078446075 0.203344 -0.075820625
0003c0 ee 12 ba bd 20 43 00 be 68 49 8c 3d 32 95 8a bd
       -0.09085642 -0.12525606 0.06849939 -0.06766738
0003d0 01 2e 1e bd cf d7 20 bc e9 55 ed bd c4 24 26 3d
       -0.03861809 -0.009817078 -0.11588652 0.040562406
0003e0 4f 25 a5 3c b0 11 0a 3c 32 c2 8e 3d 1c cf 0f 3d
       0.020159392 0.008427069 0.069706336 0.035109624
0003f0 98 f9 9a bd 09 0b 0d bc 11 7a 4b bc 9f bf 35 3d
       -0.075671375 -0.008608588 -0.01241924 0.044372197

model.4.bias f4 [512]
000000 ee d7 36 bc e4 0c 65 bc ac 1a 31 bb 26 f7 e5 bb
       -0.01115988 -0.013980124 -0.0027023954 -0.007017988
000010 b9 43 71 3c cf 2b 14 3c 9e 41 24 3c 45 c9 d2 b9
       0.014725619 0.009043648 0.01002541 -0.0004020428
000020 75 51 89 3c 38 a7 06 3b 32 33 e3 bb 02 cb 95 ba
       0.016762475 0.0020546447 -0.006933593 -0.0011428299
000030 96 e5 b3 3c 37 3b 0c bb 11 7f 0d bb d6 f9 60 bc
       0.021960061 -0.00213976 -0.002159063 -0.0137314405
000040 e7 71 9b 3c 70 44 3c 3c 6d 78 29 bc c3 19 00 3c
       0.018975211 0.011490926 -0.010343653 0.007818642
000050 43 26 d8 3c 78 12 f1 3b 45 59 6a bc da ce 6f b9
       0.026385432 0.007356938 -0.01430351 -0.00022869874
000060 4a a3 7c 3b 5c ac de bb c5 b0 3d bc c1 d1 58 bc
       0.0038549476 -0.006795449 -0.01157779 -0.013233603
000070 82 05 bf 3b b1 d5 37 3c 49 47 8b bc 17 e2 1f bc
       0.005829514 0.011220382 -0.017001765 -0.009758494
000080 14 2b c1 bb 78 0d 03 3c 95 d1 a7 bc be e0 bf bc
       -0.005895028 0.007998817 -0.020485679 -0.023422595
000090 d6 9a 1d 3c 27 87 21 3c 2b 3e 6e 3b 74 63 40 bc
       0.009619435 0.009858883 0.0036352973 -0.0117424615
0000a0 39 2b 86 bb a7 a3 71 bc 07 19 cb bb 2d ac d6 bb
       -0.004094508 -0.01474849 -0.006198052 -0.0065512867
0000b0 99 a5 8e 3b c7 be 07 bc bb 6a 03 bc 99 6d d2 3c
       0.004353237 -0.008285231 -0.008021052 0.025687026
0000c0 f4 28 59 3b 06 17 68 3c 38 eb cb bc 03 81 74 3c
       0.0033135982 0.014165645 -0.024892434 0.014923337
0000d0 16 db 6f bc c4 c1 39 3c 14 c0 a9 3c d1 97 d2 3b
       -0.0146396365 0.011337701 0.020721473 0.0064267893
0000e0 5c a6 1c bc 1c 31 21 ba fe 31 3f bb c7 87 14 bc
       -0.009561148 -0.00061489805 -0.0029174085 -0.009065575
0000f0 8b ed 28 bb 73 e5 8d 3a 6d 18 fe bb 66 8c 34 bb
       -0.0025776352 0.0010825827 -0.0077543766 -0.0027549504
000100 74 8b ae bc d6 6b b1 3b f4 87 ee 3b b3 b0 2b 3c
       -0.02130673 0.0054144664 0.0072793905 0.01047914
000110 e6 62 17 bb 96 0e 2e bc 07 e3 72 bb 60 d5 7b bc
       -0.002309972 -0.010623595 -0.0037061588 -0.015370697
000120 cc e9 46 bb cc e9 48 bc a2 0a d4 3c 7b a5 2f 3c
       -0.0030351756 -0.012262773 0.025883976 0.010720606
000130 f2 3b 51 3b c2 84 8a bc 5e 3a aa bc 5a cd 9b 3a
       0.00319266 -0.016909007 -0.020779785 0.0011886761
000140 85 4b 5f bb 98 31 82 3b f9 06 5d 3a e6 b3 3e bc
       -0.0034072113 0.003973197 0.000843152 -0.011639571
000150 3f 85 97 3b 64 a1 84 3c 75 fe 90 b9 b2 34 da 3b
       0.0046240385 0.016190238 -0.00027655406 0.006659114
000160 b5 86 02 bc 18 50 97 3b 30 2f 0b 3c 26 6b f4 bb
       -0.007966687 0.004617702 0.008495137 -0.007459062
000170 09 b7 bf bc ec f5 fc 3b 8b 85 7d bb f9 ea 9c bc
       -0.023402708 0.007719746 -0.0038684334 -0.019155012
000180 7b e5 37 bc 07 07 1f bc dc a2 46 3c cb ed 4b 3b
       -0.011224146 -0.009706265 0.01212379 0.0031117077
000190 a2 a9 73 3c 55 5d ee bb e0 2f 46 3b a0 42 4e bc
       0.014871987 -0.0072743096 0.0030240938 -0.012589127
0001a0 1b e9 05 3c 8e 28 4a bc 2c e5 61 3c fe 8e ae 3b
       0.008173252 -0.012338771 0.013787549 0.0053271046
0001b0 14 4b 14 bc 7c 9c bd 3b 7a 1b 12 3c e8 6b 3c bc
       -0.009051103 0.0057864767 0.008917684 -0.011500336
0001c0 3d 7c 6c bc 1d 11 e7 bb 29 84 1a ba 46 31 06 3c
       -0.014433918 -0.0070516006 -0.0005894327 0.008190459
0001d0 7a 2a 9a ba c9 06 15 bc 32 3b 0d 3c c0 57 b6 3c
       -0.0011761927 -0.009095856 0.00862007 0.02225864
0001e0 9e fb 85 bc 38 20 f4 ba 8d 9a c1 3a 47 1b c6 3c
       -0.016355332 -0.0018625325 0.0014770791 0.024182929
0001f0 5e ad 5b 3c 38 1e ae bc fd c6 07 3c a8 9e 8d bc
       0.013408033 -0.021254644 0.008287189 -0.017287567
000200 cc 94 35 3c 0f 88 23 3c c2 6c 85 3c db 04 9d 3b
       0.011082839 0.009981169 0.016287211 0.0047918386
000210 5e 30 7c 3a 48 a3 eb 3a 9b 6b 98 3c ab e8 01 bb
       0.00096202444 0.0017977739 0.018605998 -0.0019822519
000220 f2 97 5d 3b f6 1c 1f bb d3 e2 df 3b f0 b6 37 3b
       0.003381249 -0.0024278737 0.0068324595 0.0028032623
000230 5a 30 ce bc 49 76 19 3c 7d e9 4e bb 2c 3f fb 3a
       -0.02516954 0.00936658 -0.0031572275 0.0019168607
000240 af 32 a7 bb 70 b4 14 bc 89 dd 96 bc 6e 18 83 bc
       -0.0051024775 -0.009076223 -0.018416183 -0.01600286
000250 e9 01 c1 bb 11 22 f7 3a 59 48 9e bc 37 7f a3 3c
       -0.0058901203 0.0018854757 -0.019321607 0.019958122
000260 64 5c 4f 3c 79 10 64 bb ed e6 ae 3c 74 d6 ef bb
       0.012656305 -0.0034799858 0.021350348 -0.007319266
000270 25 10 bb bb d3 d9 7d 3b 29 33 88 ba 20 71 00 3c
       -0.0057087117 0.003873457 -0.0010391223 0.007839471
000280 a2 98 85 bc 17 a4 26 bc 16 8c b3 bc a8 d9 81 3c
       -0.016308133 -0.010170958 -0.021917384 0.015850857
000290 92 38 2a bc 58 73 8a b9 94 bb 0d 3b c1 a6 5a 3b
       -0.010389464 -0.0002640735 0.0021626698 0.0033363553
0002a0 10 b5 7c 3c cb 34 52 3b 66 9c da ba 75 04 e8 3b
       0.015424028 0.0032074924 -0.001667869 0.0070806094
0002b0 fd d7 2f 3c 26 d9 15 3c ea 76 27 ba d7 76 8c bc
       0.010732648 0.0091460105 -0.0006388264 -0.017146511
0002c0 32 36 07 3c 1d 90 66 3c 52 30 e9 39 66 90 99 bc
       0.008252667 0.014072445 0.00044477225 -0.018745612
0002d0 39 f4 39 bc e7 c4 d0 bc 46 c2 4a bc 76 6a 08 3c
       -0.011349731 -0.025484515 -0.01237542 0.0083261635
0002e0 df a9 03 bb 6a 27 ab 3b 1b fb a1 bc 8c 5b 1a 3c
       -0.0020090265 0.0052232044 -0.019773057 0.009421241
0002f0 a0 5d 7c 3c 50 8b c1 37 89 84 d7 3b cf c1 93 bc
       0.015403181 2.3072265e-05 0.0065770787 -0.018036751
000300 15 3d 04 bc 83 31 89 bb 99 ce 2d bc 9b 9b 34 3c
       -0.008071204 -0.0041868105 -0.010608339 0.011023427
000310 8d 5d e1 bb 12 94 22 3c e2 0e 99 bb 5a 2e 9c 3b
       -0.006877607 0.009922998 -0.0046709636 0.0047662677
000320 a0 14 48 bc e6 d1 12 bc c2 d7 53 bc 04 77 ca 3c
       -0.012211949 -0.0089611765 -0.012929859 0.024714954
000330 9f 4d a3 bb fd 55 c8 3a c0 e5 93 bb 7f da 28 3c
       -0.0049836184 0.0015284416 -0.0045134723 0.010306
000340 59 9c 1e bc 65 5b 41 ba a4 30 1a bc 1a 8b 70 bc
       -0.009680831 -0.00073759846 -0.009411011 -0.014681602
000350 06 64 9f bc 1e da dc bc b4 cf fa ba d9 c3 89 3a
       -0.019456875 -0.026959475 -0.0019135387 0.0010510638
000360 e4 4b 2e 3c ac 88 6b bc 7f 36 9c bb 01 3d 95 bb
       0.010638211 -0.014375847 -0.0047672386 -0.0045543914
000370 8b 13 9c bc 3e 9f a5 3c 5f 83 97 3a 45 a6 91 bb
       -0.019052288 0.020217534 0.0011559537 -0.0044448697
000380 33 de ca 3a ba d7 0b bc 46 52 b0 b9 3e a3 ff b8
       0.0015477597 -0.00853532 -0.00033630634 -0.00012189754
000390 3e 22 4b 3b e7 d1 d3 3a 40 da d3 3c 40 24 95 bc
       0.0030995752 0.0016160578 0.025860906 -0.018205762
0003a0 f7 16 71 3b 53 76 21 3c 5b f2 d0 3c 4e 48 86 3c
       0.003678737 0.009854871 0.02550619 0.0163919
0003b0 de 7d 70 bc f5 7c e5 bb d6 3a 9e 3b ba ab c2 3c
       -0.014678447 -0.0070034214 0.004828791 0.023763526
0003c0 62 d8 37 bc 03 90 31 3c 7c f4 0b 3b 69 fc a7 3c
       -0.011221023 0.010837558 0.002135544 0.0205061
0003d0 39 56 cf bb 00 8f f2 3b de 28 e8 3a 66 a9 36 bb
       -0.006327417 0.007402301 0.0017712375 -0.0027871965
0003e0 ae 31 1d bc 6b f2 b7 3a 7e d4 5a bc b7 4e 57 3b
       -0.009594364 0.0014034038 -0.013356326 0.0032853314
0003f0 95 e3 cc 38 6b 67 20 bc 7c 10 70 bc c1 9d 85 3b
       9.7698685e-05 -0.009790282 -0.014652368 0.0040776436
